…
niter: 25
niter_decay: 25
no_dropout: False
no_flip: False
no_html: False
no_lsgan: False
norm: batch
output_nc: 3
phase: train
pool_size: 50
print_freq: 100
resize_or_crop: resize_and_crop
save_epoch_freq: 5
save_latest_freq: 5000
serial_batches: False
which_direction: AtoB
which_epoch: latest
which_model_netD: basic
which_model_netG: unet_256
-------------- End ----------------
CustomDatasetDataLoader
dataset [AlignedDataset] was created
#training images = 7210
pix2pix
---------- Networks initialized -------------
UnetGenerator (
  (model): UnetSkipConnectionBlock (
    (model): Sequential (
      (0): Conv2d(3, 64, kernel_size=(4, 4), stride=(2, 2), padding=(1, 1))
      (1): UnetSkipConnectionBlock (
        (model): Sequential (
          (0): LeakyReLU (0.2, inplace)
          (1): Conv2d(64, 128, kernel_size=(4, 4), stride=(2, 2), padding=(1, 1))
          (2): BatchNorm2d(128, eps=1e-05, momentum=0.1, affine=True)
          (3): UnetSkipConnectionBlock (
            (model): Sequential (
              (0): LeakyReLU (0.2, inplace)
              (1): Conv2d(128, 256, kernel_size=(4, 4), stride=(2, 2), padding=(1, 1))
              (2): BatchNorm2d(256, eps=1e-05, momentum=0.1, affine=True)
              (3): UnetSkipConnectionBlock (
                (model): Sequential (
                  (0): LeakyReLU (0.2, inplace)
                  (1): Conv2d(256, 512, kernel_size=(4, 4), stride=(2, 2), padding=(1, 1))
                  (2): BatchNorm2d(512, eps=1e-05, momentum=0.1, affine=True)
                  (3): UnetSkipConnectionBlock (
                    (model): Sequential (
                      (0): LeakyReLU (0.2, inplace)
                      (1): Conv2d(512, 512, kernel_size=(4, 4), stride=(2, 2), padding=(1, 1))
                      (2): BatchNorm2d(512, eps=1e-05, momentum=0.1, affine=True)
                      (3): UnetSkipConnectionBlock (
                        (model): Sequential (
                          (0): LeakyReLU (0.2, inplace)
                          (1): Conv2d(512, 512, kernel_size=(4, 4), stride=(2, 2), padding=(1, 1))
                          (2): BatchNorm2d(512, eps=1e-05, momentum=0.1, affine=True)
                          (3): UnetSkipConnectionBlock (
                            (model): Sequential (
                              (0): LeakyReLU (0.2, inplace)
                              (1): Conv2d(512, 512, kernel_size=(4, 4), stride=(2, 2), padding=(1, 1))
                              (2): BatchNorm2d(512, eps=1e-05, momentum=0.1, affine=True)
                              (3): UnetSkipConnectionBlock (
                                (model): Sequential (
                                  (0): LeakyReLU (0.2, inplace)
                                  (1): Conv2d(512, 512, kernel_size=(4, 4), stride=(2, 2), padding=(1, 1))
                                  (2): ReLU (inplace)
                                  (3): ConvTranspose2d(512, 512, kernel_size=(4, 4), stride=(2, 2), padding=(1, 1))
                                  (4): BatchNorm2d(512, eps=1e-05, momentum=0.1, affine=True)
                                )
                              )
                              (4): ReLU (inplace)
                              (5): ConvTranspose2d(1024, 512, kernel_size=(4, 4), stride=(2, 2), padding=(1, 1))
                              (6): BatchNorm2d(512, eps=1e-05, momentum=0.1, affine=True)
                              (7): Dropout (p = 0.5)
                            )
                          )
                          (4): ReLU (inplace)
                          (5): ConvTranspose2d(1024, 512, kernel_size=(4, 4), stride=(2, 2), padding=(1, 1))
                          (6): BatchNorm2d(512, eps=1e-05, momentum=0.1, affine=True)
                          (7): Dropout (p = 0.5)
                        )
                      )
                      (4): ReLU (inplace)
                      (5): ConvTranspose2d(1024, 512, kernel_size=(4, 4), stride=(2, 2), padding=(1, 1))
                      (6): BatchNorm2d(512, eps=1e-05, momentum=0.1, affine=True)
                      (7): Dropout (p = 0.5)
                    )
                  )
                  (4): ReLU (inplace)
                  (5): ConvTranspose2d(1024, 256, kernel_size=(4, 4), stride=(2, 2), padding=(1, 1))
                  (6): BatchNorm2d(256, eps=1e-05, momentum=0.1, affine=True)
                )
              )
              (4): ReLU (inplace)
              (5): ConvTranspose2d(512, 128, kernel_size=(4, 4), stride=(2, 2), padding=(1, 1))
              (6): BatchNorm2d(128, eps=1e-05, momentum=0.1, affine=True)
            )
          )
          (4): ReLU (inplace)
          (5): ConvTranspose2d(256, 64, kernel_size=(4, 4), stride=(2, 2), padding=(1, 1))
          (6): BatchNorm2d(64, eps=1e-05, momentum=0.1, affine=True)
        )
      )
      (2): ReLU (inplace)
      (3): ConvTranspose2d(128, 3, kernel_size=(4, 4), stride=(2, 2), padding=(1, 1))
      (4): Tanh ()
    )
  )
)
Total number of parameters: 54419459
NLayerDiscriminator (
  (model): Sequential (
    (0): Conv2d(6, 64, kernel_size=(4, 4), stride=(2, 2), padding=(2, 2))
    (1): LeakyReLU (0.2, inplace)
    (2): Conv2d(64, 128, kernel_size=(4, 4), stride=(2, 2), padding=(2, 2))
    (3): BatchNorm2d(128, eps=1e-05, momentum=0.1, affine=True)
    (4): LeakyReLU (0.2, inplace)
    (5): Conv2d(128, 256, kernel_size=(4, 4), stride=(2, 2), padding=(2, 2))
    (6): BatchNorm2d(256, eps=1e-05, momentum=0.1, affine=True)
    (7): LeakyReLU (0.2, inplace)
    (8): Conv2d(256, 512, kernel_size=(4, 4), stride=(1, 1), padding=(2, 2))
    (9): BatchNorm2d(512, eps=1e-05, momentum=0.1, affine=True)
    (10): LeakyReLU (0.2, inplace)
    (11): Conv2d(512, 1, kernel_size=(4, 4), stride=(1, 1), padding=(2, 2))
  )
)
Total number of parameters: 2769601
-----------------------------------------------
model [Pix2PixModel] was created
create web directory ./checkpoints/placenta_pix2pix/web...
(epoch: 1, iters: 100, time: 0.198) G_GAN: 0.453 G_L1: 3.950 D_real: 0.535 D_fake: 0.328 
(epoch: 1, iters: 200, time: 0.193) G_GAN: 0.620 G_L1: 33.112 D_real: 0.126 D_fake: 0.213 
…
